models/model_20241126_164903.pth (torch, 118859 bytes, 20 tensors)

layers.0.weight f4 [128, 10]
0	0x3dbe26ee	0.09284769
1	0x3dfc1185	0.12308029
2	0x3dc5e1b5	0.09662191
3	0xbd9fa794	-0.07795635
4	0xbe5e9180	-0.21735191
5	0x3e186a97	0.14884411
6	0x3dd6cffa	0.10488887
7	0x3e3d8cf4	0.185108
8	0x3dc6f55e	0.09714769
9	0xbdf54e39	-0.119778104
10	0xc069066e	-3.6410174
11	0x3d17509c	0.03694211
12	0x3b42d47c	0.0029728701
13	0x3ded8336	0.11597292
14	0x3bfea5d2	0.007771232
15	0xbae8b1cf	-0.0017753186
16	0x3dc128e6	0.09431629
17	0x3e0f36b1	0.13985707
18	0x3c99a711	0.018756421
19	0xbe3d21a9	-0.18469872
20	0x3dc4cec2	0.096097484
21	0xbdd721ed	-0.10504518
22	0x3dbfe0d2	0.09369053
23	0x3b845290	0.0040381625
24	0xbe319e7b	-0.17345612
25	0x3d8bd9df	0.06828665
26	0xbdde354b	-0.108500086
27	0xbd82a869	-0.06379778
28	0xbd0d06b4	-0.03443022
29	0x3de7fa8b	0.11327084
30	0xbe35b0e8	-0.17743266
31	0x3dd1ab22	0.10237719
32	0xbe540f61	-0.20708992
33	0x3de135d6	0.109965965
34	0xbdffc605	-0.12488941
35	0x3de643be	0.112433895
36	0xbe39d4cc	-0.18147582
37	0xbe3da6de	-0.18520686
38	0x3da74f2e	0.08169399
39	0x3c5e93d0	0.013585046
40	0x3fe38221	1.7774087
41	0xbe8c9724	-0.2745906
42	0xbd33e046	-0.043915056
43	0xbe9e4506	-0.30912036
44	0xbb7f2de1	-0.0038937258
45	0xbe2673dd	-0.16255136
46	0xbee25a73	-0.44209632
47	0xbdb3c72f	-0.08778226
48	0x3cc64e23	0.02420718
49	0x3da6f74f	0.08152639
50	0xbed0664e	-0.40703052
51	0xbe394dbf	-0.18096064
52	0x3d617d72	0.055051275
53	0x3e67f76a	0.22652975
54	0xbdc0ca92	-0.09413637
55	0x3d16995a	0.03676734
56	0x3d8d1f5f	0.06890749
57	0xbe82e76a	-0.2556718
58	0xbd191f0b	-0.03738312
59	0xbe8a8ed2	-0.27062088
60	0x3e03e1b5	0.12879069
61	0x3e229af1	0.15879418
62	0xbdf71144	-0.1206384
63	0x3e610c78	0.21977413
64	0x3d288b5d	0.041148532
65	0x3d894dcd	0.067042924
66	0xbde68315	-0.11255471
67	0x3e4a2b82	0.1974316
68	0x3e7bff7f	0.24609183
69	0x3e0fb5bb	0.14034168
70	0xbfe1571b	-1.7604707
71	0x3eb6f63b	0.35734734
72	0x3cac9bfd	0.021070475
73	0xbd289b45	-0.0411637
74	0x3d523761	0.051322345
75	0xbea89ea7	-0.32933542
76	0x3eef381c	0.46722496
77	0xbe9fefca	-0.31237632
78	0x3d391827	0.04518905
79	0xbe068b09	-0.13138975
80	0xbcf74c0c	-0.03018763
81	0x3e3a95ca	0.18221202
82	0xbded5c39	-0.11589856
83	0xbe0f97d3	-0.1402276
84	0x3c78073d	0.0151384445
85	0x3e273a39	0.16330804
86	0x3e006be7	0.12541161
87	0x3d99235a	0.07477446
88	0x3dbb8a62	0.09157254
89	0x3e0f1167	0.13971482
90	0x3e452213	0.1925128
91	0xbe42b183	-0.19013028
92	0xbd65d1f0	-0.056108415
93	0xbe2aa90a	-0.16666046
94	0xbe40fa13	-0.18845396
95	0x3e3c23ff	0.18373106
96	0xbdc02fa4	-0.09384087
97	0x3e28dead	0.16491194
98	0x3a8b0a00	0.0010607839
99	0xbdb48120	-0.08813691
100	0xbe4f97b2	-0.20272711
101	0x3e1c0fcd	0.15240403
102	0xbd885904	-0.066576034
103	0x3e13a139	0.1441697
104	0xbdb5fe18	-0.08886355
105	0xbd026074	-0.031830266
106	0xbd9809ae	-0.07423721
107	0x3e4bebaf	0.19914125
108	0xbc94c758	-0.01816146
109	0x3c3efce0	0.01165697
110	0x3e3ddd17	0.1854137
111	0x3e0c000f	0.13671897
112	0xbdbb3f39	-0.09142918
113	0x3d2649bc	0.040597662
114	0xbe180910	-0.14847207
115	0x3e36d397	0.17854153
116	0xbe17efbe	-0.14837548
117	0x3dbf85ee	0.09351717
118	0x3e064b2f	0.13114618
119	0xbe2c8667	-0.16848145
120	0xbd9fbfa2	-0.07800223
121	0xbe231097	-0.15924297
122	0xbdb9f824	-0.09080532
123	0xbe19cdbe	-0.1501989
124	0x3d333784	0.043754116
125	0xbdd90b90	-0.105979085
126	0x3d5cdcdc	0.053921565
127	0xbc0cea70	-0.008600816
128	0xbde14c74	-0.110009104
129	0x3db54d3a	0.088526204
130	0x401cbd47	2.4490526
131	0x3e21c9af	0.15799592
132	0xbc785dff	-0.015159129
133	0xbe72aa11	-0.23697688
134	0xbbc0b5dd	-0.005881055
135	0x3e9b1f1b	0.3029717
136	0x3f2abe50	0.66696644
137	0x3dca515b	0.098787986
138	0xbe06f14b	-0.13177983
139	0x3d82f6f7	0.06394761
140	0xbdb75802	-0.08952333
141	0xbc614b80	-0.013750911
142	0xbd451064	-0.048111334
143	0x3e439571	0.19099976
144	0xbdc03357	-0.09384792
145	0x3e39b931	0.18137051
146	0xbe1e03ff	-0.15431212
147	0xbe1e3a42	-0.15451911
148	0x3d57226c	0.05252306
149	0xbd09c680	-0.03363657
150	0x3d2b0b54	0.04175885
151	0xbcd0b883	-0.025478607
152	0xbe4ef7de	-0.20211741
153	0xbdbb1414	-0.09134689
154	0x3ded1952	0.11577095
155	0x3db0d6ad	0.08634696
156	0xbd1f6610	-0.038915694
157	0x3df86261	0.12128139
158	0xbe4dd18f	-0.20099472
159	0x3dfaac36	0.12239878
160	0x400328d5	2.0493672
161	0x3e0661eb	0.1312329
162	0x3cacc60c	0.02109053
163	0xbea3a93d	-0.31965056
164	0x3ceb63be	0.028734084
165	0xbeaede05	-0.34153762
166	0x3d503ffa	0.050842263
167	0xbeee2645	-0.46513572
168	0x3e08c25d	0.13355394
169	0x3e81ed0e	0.2537617
170	0x3ebaaba0	0.36459064
171	0xbe211564	-0.15730816
172	0xbdb83153	-0.08993783
173	0xbe23c864	-0.15994412
174	0x3da3749d	0.079812266
175	0x3d9eb263	0.07748868
176	0xbdf13526	-0.117777154
177	0xbaf64e06	-0.0018791563
178	0xbe6104da	-0.21974507
179	0xbdd34d9b	-0.103175364
180	0x3e3eacbf	0.18620585
181	0x3e049a6b	0.12949531
182	0xbd36ca0a	-0.044626273
183	0x3d48866d	0.048956323
184	0x3cce34af	0.025171606
185	0x3e1251e3	0.1428905
186	0xbe20d6f0	-0.15706992
187	0xbd6dcfa5	-0.058059353
188	0xbe0c9f07	-0.13732539
189	0x3e085eb1	0.13317372
190	0xbdf6430f	-0.12024509
191	0xbe31ee89	-0.1737615
192	0xbc81f29c	-0.015862755
193	0x3dda9d41	0.10674525
194	0x3d0b9f3d	0.03408741
195	0xbd7f59ff	-0.062341686
196	0x3e14161f	0.14461564
197	0xbe3d5200	-0.18488312
198	0xbe6d3b45	-0.23167141
199	0xbe2fad12	-0.17155865
200	0xc0452541	-3.0803988
201	0xbd4d9c04	-0.050197616
202	0xbbe859b7	-0.007090773
203	0x3e779935	0.24179538
204	0x3c11c867	0.008897877
205	0x3ec76f14	0.38951933
206	0xbeca7d38	-0.3954866
207	0x3e7ad7ca	0.2449638
208	0x3cb80c3b	0.02246677
209	0xbe37f322	-0.17963842
210	0xbe4841ff	-0.19556426
211	0xbe2bfbdb	-0.16795294
212	0x3c9a4f50	0.018836647
213	0xbe0a1cf6	-0.1348761
214	0xbdab51a5	-0.08365182
215	0xbd860bc6	-0.06545214
216	0xbe502a90	-0.20328736
217	0x3dfb10fe	0.122591004
218	0xbd5d1978	-0.053979367
219	0x3d68ab8c	0.056804225
220	0x3ce3bb50	0.027799278
221	0xbe2a2a6c	-0.16617745
222	0xbbf5bac0	-0.007499069
223	0x3dcffb8a	0.10155399
224	0xbe3e62ea	-0.1859242
225	0xbdb374f3	-0.08762541
226	0x3db130fa	0.0865192
227	0xbe50c0a9	-0.20385994
228	0x3c99fdb8	0.01879774
229	0xbe03efe2	-0.12884477
230	0x3dd06f7e	0.101775154
231	0xbd7658a4	-0.060143128
232	0xbdc834cd	-0.09775696
233	0x3e189415	0.14900239
234	0xbd1f29b4	-0.03885813
235	0x3d117230	0.03550929
236	0xbe2d084e	-0.16897699
237	0xbc738390	-0.01486291
238	0xbc84fa88	-0.016232744
239	0xbd3bcc48	-0.045849115
240	0xbdb469c6	-0.08809237
241	0xbd8603d6	-0.065437004
242	0x3d39b124	0.04533495
243	0xbe403dee	-0.18773624
244	0xbe014474	-0.12623769
245	0x3dab4846	0.083633944
246	0x3d52bddc	0.051450595
247	0x3e53fed1	0.20702673
248	0x3dc28f2a	0.09499963
249	0xbe23e004	-0.16003424
250	0xbf811919	-1.0085784
251	0xbe69f311	-0.22846629
252	0xbc1d47de	-0.009599654
253	0x3e851488	0.25992227
254	0x3c215c27	0.009848631
255	0x3e8f323b	0.2796801

layers.0.bias f4 [128]
0	0xbc3724bb	-0.011178191
1	0x3e0b3662	0.13594964
2	0xbd1f5fc1	-0.038909677
3	0x00000000	0.0
4	0x3ddcf47c	0.10788819
5	0xbdc8a03a	-0.09796186
6	0x3d24fe81	0.040281776
7	0x3d39b778	0.045340985
8	0xbc7a2d1b	-0.015269543
9	0x00000000	0.0
10	0x00000000	0.0
11	0x00000000	0.0
12	0x00000000	0.0
13	0xbe2b62e6	-0.16736946
14	0x00000000	0.0
15	0xbd4c36e5	-0.04985704
16	0x3cb37976	0.021908503
17	0xbd572059	-0.052521084
18	0x3b057fda	0.0020370395
19	0xbcc1948e	-0.023630407
20	0x3d263cc9	0.040585313
21	0x00000000	0.0
22	0x00000000	0.0
23	0x00000000	0.0
24	0x00000000	0.0
25	0x3e8d2276	0.27565354
26	0x3ad4bdac	0.0016230843
27	0x00000000	0.0
28	0x00000000	0.0
29	0x00000000	0.0
30	0x00000000	0.0
31	0x3c1277bb	0.008939679
32	0x00000000	0.0
33	0x3e835a4c	0.2565483
34	0x00000000	0.0
35	0x00000000	0.0
36	0x3ee142ce	0.4399628
37	0x00000000	0.0
38	0xbd58eb6a	-0.052958883
39	0x00000000	0.0
40	0x3e11f1fe	0.14252469
41	0x3c165150	0.00917466
42	0x3e1fca84	0.15604597
43	0x3ea66f1b	0.32506642
44	0x3e06da1b	0.13169138
45	0x00000000	0.0
46	0x3e94c4cd	0.29056397
47	0x3e69b420	0.22822618
48	0x00000000	0.0
49	0x00000000	0.0
50	0xbd3a2a1b	-0.04545031
51	0xbce726aa	-0.028216679
52	0x00000000	0.0
53	0x00000000	0.0
54	0x3ec94c70	0.3931613
55	0x00000000	0.0
56	0x3dfbfab7	0.123036794
57	0x3e5cfb15	0.21580155
58	0x00000000	0.0
59	0x3d4b02d9	0.049563263
60	0xbcb76a84	-0.022389658
61	0x00000000	0.0
62	0x00000000	0.0
63	0x3e5aa2ab	0.21351115
64	0xbd6101d8	-0.0549334
65	0xbd55395f	-0.052056666
66	0x3ca69639	0.020335304
67	0xbcb28212	-0.021790538
68	0x3e1e8d9e	0.1548371
69	0xbe153f6b	-0.14574973
70	0x3ca55464	0.020181842
71	0xbd11b8a7	-0.03557649
72	0x3e5e879d	0.2173142
73	0x3caef182	0.021355394
74	0x3cac3347	0.021020545
75	0x00000000	0.0
76	0xbad6f56d	-0.0016400047
77	0xbbb9ab29	-0.005666156
78	0x00000000	0.0
79	0x3d7227ad	0.05911987
80	0x3c2c5a6a	0.010519603
81	0x3e16f736	0.14742741
82	0x00000000	0.0
83	0x3e9867ba	0.29766637
84	0x00000000	0.0
85	0xbd178fde	-0.037002437
86	0xbdfc183d	-0.123093106
87	0x00000000	0.0
88	0xbcd99cd0	-0.026564032
89	0xbca5d6bf	-0.020244
90	0x3cb252d7	0.021768017
91	0xbbebbaf9	-0.0071939197
92	0x00000000	0.0
93	0x00000000	0.0
94	0x00000000	0.0
95	0x00000000	0.0
96	0x00000000	0.0
97	0x3e2d9e0e	0.16954824
98	0x3e0b04bd	0.13576026
99	0xbc8183fc	-0.015810005
100	0x3cfaa4ac	0.0305961
101	0x00000000	0.0
102	0xbd1381b6	-0.036012374
103	0x00000000	0.0
104	0x00000000	0.0
105	0x3eb9f060	0.36316204
106	0x00000000	0.0
107	0x00000000	0.0
108	0x00000000	0.0
109	0xbcae9641	-0.021311881
110	0x3e257b84	0.16160399
111	0xbcadad7d	-0.02120089
112	0xbcd672d8	-0.026177809
113	0x00000000	0.0
114	0x3d31e769	0.04343358
115	0x00000000	0.0
116	0x3dcb94d0	0.09940493
117	0x3d9f18fb	0.077684365
118	0xbd10836d	-0.035281587
119	0x00000000	0.0
120	0x3dd30c5e	0.10305093
121	0x3df7329d	0.120702006
122	0x00000000	0.0
123	0x00000000	0.0
124	0x3e3059d0	0.17221761
125	0x00000000	0.0
126	0x3dbb55d2	0.09147228
127	0x00000000	0.0

layers.2.weight f4 [128]
0	0x3f5eae0f	0.8698434
1	0x3f63ec85	0.89032775
2	0x3f71e4e4	0.94489884
3	0x3f800000	1.0
4	0x3f50243c	0.8130529
5	0x3f775019	0.96606594
6	0x3f30dee1	0.69090086
7	0x3f585f09	0.8452001
8	0x3f82e3e6	1.0225799
9	0x3f800000	1.0
10	0x3f800000	1.0
11	0x3f800000	1.0
12	0x3f800000	1.0
13	0x3f5dd5a0	0.8665409
14	0x3f800000	1.0
15	0x3f64553f	0.89192575
16	0x3f6baef2	0.9206382
17	0x3f72a8ce	0.94788826
18	0x3f7f66e5	0.9976638
19	0x3f80ba87	1.0056924
20	0x3f70f815	0.94128543
21	0x3f800000	1.0
22	0x3f800000	1.0
23	0x3f800000	1.0
24	0x3f800000	1.0
25	0x3f708856	0.9395803
26	0x3f91a821	1.1379434
27	0x3f800000	1.0
28	0x3f800000	1.0
29	0x3f800000	1.0
30	0x3f800000	1.0
31	0x3f60202e	0.875491
32	0x3f800000	1.0
33	0x3f635739	0.88804966
34	0x3f800000	1.0
35	0x3f800000	1.0
36	0x3f64ad8b	0.89327306
37	0x3f800000	1.0
38	0x3f6b7a59	0.9198356
39	0x3f800000	1.0
40	0x3f7834c8	0.9695554
41	0x3f2c1a02	0.67227185
42	0x3f8796d3	1.0592903
43	0x3f89835e	1.0743215
44	0x3f68b14b	0.9089553
45	0x3f800000	1.0
46	0x3fa40a8d	1.281572
47	0x3f7289ae	0.9474133
48	0x3f800000	1.0
49	0x3f800000	1.0
50	0x3f8385ec	1.0275245
51	0x3f79ebb7	0.976253
52	0x3f800000	1.0
53	0x3f800000	1.0
54	0x3f90ab81	1.1302339
55	0x3f800000	1.0
56	0x3f4f7034	0.81030583
57	0x3f7f9a8e	0.99845207
58	0x3f800000	1.0
59	0x3f692a13	0.91079825
60	0x3f818091	1.011736
61	0x3f800000	1.0
62	0x3f800000	1.0
63	0x3f719f17	0.94383377
64	0x3f7bf49e	0.9842013
65	0x3f88e6af	1.0695399
66	0x3f8de584	1.1085668
67	0x3f806cdc	1.0033221
68	0x3f5d48ea	0.86439383
69	0x3f83f298	1.0308409
70	0x3f8ae2d4	1.0850472
71	0x3f7f26ac	0.99668384
72	0x3f6cb9ef	0.9247121
73	0x3f546ed0	0.82981586
74	0x3f360bc5	0.7111171
75	0x3f800000	1.0
76	0x3f8bf52c	1.0934196
77	0x3f715e4b	0.94284505
78	0x3f800000	1.0
79	0x3f3371e1	0.7009564
80	0x3f8efb47	1.1170434
81	0x3f6a7f26	0.91600263
82	0x3f800000	1.0
83	0x3fbe1346	1.4849632
84	0x3f800000	1.0
85	0x3f83a3c1	1.0284349
86	0x3f95196c	1.1648383
87	0x3f800000	1.0
88	0x3f7798f5	0.9671777
89	0x3f388288	0.72074175
90	0x3f4d1176	0.8010477
91	0x3f659bc8	0.8969083
92	0x3f800000	1.0
93	0x3f800000	1.0
94	0x3f800000	1.0
95	0x3f800000	1.0
96	0x3f800000	1.0
97	0x3f74be58	0.9560294
98	0x3f7801a8	0.9687753
99	0x3f6511a5	0.8948005
100	0x3f7cb45f	0.98712724
101	0x3f800000	1.0
102	0x3f7c8e26	0.986544
103	0x3f800000	1.0
104	0x3f800000	1.0
105	0x3f9e29fa	1.235656
106	0x3f800000	1.0
107	0x3f800000	1.0
108	0x3f800000	1.0
109	0x3f5b2f40	0.8561897
110	0x3f9eaff5	1.2397448
111	0x3f485480	0.78253937
112	0x3f83565e	1.0260732
113	0x3f800000	1.0
114	0x3f730949	0.94936043
115	0x3f800000	1.0
116	0x3f82c047	1.0214928
117	0x3f890c94	1.0706964
118	0x3f818394	1.011828
119	0x3f800000	1.0
120	0x3f6b0d0c	0.9181678
121	0x3f6136e0	0.8797436
122	0x3f800000	1.0
123	0x3f800000	1.0
124	0x3f8ddd48	1.1083155
125	0x3f800000	1.0
126	0x3f75b45c	0.9597833
127	0x3f800000	1.0

layers.2.bias f4 [128]
0	0xbd4c77d4	-0.049918965
1	0x3d06fd3f	0.032956358
2	0x3d6f438f	0.05841404
3	0xbd62bafc	-0.055354103
4	0x3d203c1b	0.03911982
5	0x3d3901d4	0.04516776
6	0xbdbd1b10	-0.092336774
7	0x3cc1c03e	0.023651239
8	0x3e0a12af	0.1348369
9	0xbe315691	-0.17318179
10	0x3df2e26d	0.118595935
11	0xbe968da4	-0.29404938
12	0xbe639cdb	-0.22227804
13	0x3c695d05	0.014243369
14	0xbe8ec1e8	-0.27882314
15	0xbd1d3fe4	-0.03839101
16	0xbd3054e8	-0.043049723
17	0xbe0942c9	-0.13404383
18	0xbe261252	-0.16217926
19	0x3b7038ab	0.003665487
20	0xbc404347	-0.01173479
21	0x3dea31c8	0.11435276
22	0xbe39ebdd	-0.18156381
23	0xbe2dfde6	-0.16991386
24	0xbe5c5dc9	-0.21520151
25	0x3d967469	0.07346422
26	0xbccdb662	-0.025111381
27	0x3e3c56db	0.18392508
28	0xbe4f3695	-0.20235665
29	0xbe862ca5	-0.26205936
30	0x3e58d96e	0.21176693
31	0xbd405f9b	-0.046966176
32	0xbe774980	-0.24149132
33	0x3d0a9490	0.033833086
34	0x3e435da0	0.19078684
35	0xbe8eea07	-0.27912924
36	0x3d30f175	0.04319902
37	0xbe054615	-0.13015015
38	0x3d018148	0.031617433
39	0x3e66d2cb	0.22541349
40	0xbda3e512	-0.08002676
41	0xbd3781f8	-0.044801682
42	0x3bd0b96f	0.0063697617
43	0xbc7eb570	-0.015546188
44	0x3c919ad5	0.017774025
45	0xbe305212	-0.17218807
46	0x3cbfa2fe	0.02339315
47	0x3d677e6c	0.05651705
48	0xbe484d1d	-0.19560666
49	0x3e289458	0.16462839
50	0x3ca9fc00	0.020750046
51	0x3d7faaff	0.062418934
52	0x3e4d9820	0.20077562
53	0x3e18c3e9	0.14918484
54	0xbb50a6b2	-0.003183764
55	0xbe594c82	-0.21220592
56	0xbd8487c7	-0.0647121
57	0x3c689151	0.014194802
58	0xbe93fb6f	-0.28902766
59	0x3d728698	0.05921039
60	0xbd88fc8a	-0.06688793
61	0x3e23f133	0.16009979
62	0xbe87d125	-0.26526752
63	0xbd763323	-0.06010736
64	0x3d510553	0.05103047
65	0xbc94024b	-0.0180675
66	0xbce9e6ee	-0.028552499
67	0xbe09b0d4	-0.13446361
68	0x3d946dcc	0.072475046
69	0x3e00c0a6	0.1257349
70	0xbdce6b6d	-0.100790836
71	0xbddf4a54	-0.10902849
72	0x3d430cff	0.047619816
73	0xbc19594c	-0.009359669
74	0xbe37860b	-0.17922227
75	0xbddbfc7f	-0.10741519
76	0xbbdba57a	-0.006703076
77	0xbdb2a57f	-0.08722972
78	0x3e1bebcf	0.15226673
79	0xbd71d211	-0.059038226
80	0x3c3967b5	0.01131623
81	0x3d693cc7	0.056942727
82	0x3e8afdce	0.27146763
83	0xbbc5a1aa	-0.0060312347
84	0xbd7c3caa	-0.06158129
85	0xbc4c0e12	-0.0124545265
86	0xbcc8b225	-0.024499008
87	0x3e491eeb	0.196407
88	0xbd055f3c	-0.032561526
89	0x3cb1dbf9	0.021711336
90	0x3e202721	0.15639926
91	0xbcf50f3b	-0.029914489
92	0x3d9669c6	0.073443934
93	0xbe653d55	-0.22386678
94	0x3e4d79a1	0.20065929
95	0x3e889292	0.26674324
96	0xbd911d99	-0.070857234
97	0xbd846d44	-0.06466153
98	0x3bb10e17	0.005403291
99	0x3d1ce748	0.038306504
100	0x3d83e37a	0.06439872
101	0xbe251650	-0.16121793
102	0xbd5e68a3	-0.054299008
103	0xbdeda5c2	-0.116038814
104	0x3e37d639	0.17952813
105	0xbc8b8030	-0.017028898
106	0x3e7d4709	0.24734129
107	0x3e6af878	0.22946346
108	0x3eb2e67d	0.34941474
109	0x3c47946e	0.0121813845
110	0xbaf05181	-0.0018334837
111	0x3ddc4c91	0.107567914
112	0x3d91fb28	0.071279824
113	0xbe801761	-0.25017837
114	0xbba9c9e7	-0.0051815393
115	0x3e4dec65	0.20109709
116	0xbbc2c86f	-0.0059443037
117	0xbd04e945	-0.032449026
118	0xbd3261c3	-0.043550264
119	0x3e437b7d	0.19090076
120	0x3c9a2910	0.018818408
121	0xbd4029b3	-0.046914767
122	0x3e21a171	0.15784241
123	0xbe418f85	-0.18902405
124	0x3d405724	0.046958104
125	0x3e5462a5	0.20740755
126	0x3c97cd09	0.018530386
127	0x3d6d0087	0.05786183

layers.2.running_mean f4 [128]
0	0x00000004	6e-45
1	0x4007ebf2	2.123776
2	0x00000004	6e-45
3	0x00000000	0.0
4	0x00000004	6e-45
5	0x00000004	6e-45
6	0x4000d96d	2.0132706
7	0x40f101c6	7.5314665
8	0x00000004	6e-45
9	0x00000000	0.0
10	0x00000000	0.0
11	0x00000000	0.0
12	0x00000000	0.0
13	0x00000004	6e-45
14	0x00000000	0.0
15	0x00000004	6e-45
16	0x40923f53	4.57023
17	0x00000004	6e-45
18	0x00000004	6e-45
19	0x00000004	6e-45
20	0x400332e2	2.0499806
21	0x00000000	0.0
22	0x00000000	0.0
23	0x00000000	0.0
24	0x00000000	0.0
25	0x3fe109dc	1.7581134
26	0x00000004	6e-45
27	0x00000000	0.0
28	0x00000000	0.0
29	0x00000000	0.0
30	0x00000000	0.0
31	0x413191c2	11.098085
32	0x00000000	0.0
33	0x4044efc0	3.0771332
34	0x00000000	0.0
35	0x00000000	0.0
36	0x3fe8ca8b	1.8186811
37	0x00000000	0.0
38	0x40ac5f34	5.3866215
39	0x00000000	0.0
40	0x40276428	2.615488
41	0x3f73c79b	0.9522645
42	0x3fd7129b	1.6802553
43	0x00000004	6e-45
44	0x40169f27	2.353464
45	0x00000000	0.0
46	0x3f0ff3cf	0.562314
47	0x3fd41402	1.6568606
48	0x00000000	0.0
49	0x00000000	0.0
50	0x00000004	6e-45
51	0x00000004	6e-45
52	0x00000000	0.0
53	0x00000000	0.0
54	0x3f79ebcc	0.9762542
55	0x00000000	0.0
56	0x406bb86a	3.6831307
57	0x00000004	6e-45
58	0x00000000	0.0
59	0x40e7aae0	7.239609
60	0x00000004	6e-45
61	0x00000000	0.0
62	0x00000000	0.0
63	0x401fee8b	2.4989345
64	0x00000004	6e-45
65	0x00000004	6e-45
66	0x00000004	6e-45
67	0x00000004	6e-45
68	0x403828af	2.8774831
69	0x40a5ff9b	5.187452
70	0x3fd6f905	1.6794745
71	0x00000004	6e-45
72	0x00000004	6e-45
73	0x00000004	6e-45
74	0x411a3232	9.637255
75	0x00000000	0.0
76	0x3f039d49	0.51411873
77	0x40faf372	7.8422174
78	0x00000000	0.0
79	0x412ae1a0	10.680084
80	0x00000004	6e-45
81	0x00000004	6e-45
82	0x00000000	0.0
83	0x3ee90892	0.4551435
84	0x00000000	0.0
85	0x00000004	6e-45
86	0x3f9fc88c	1.2483077
87	0x00000000	0.0
88	0x00000004	6e-45
89	0x00000004	6e-45
90	0x4186f403	16.869146
91	0x411a748f	9.653457
92	0x00000000	0.0
93	0x00000000	0.0
94	0x00000000	0.0
95	0x00000000	0.0
96	0x00000000	0.0
97	0x401af365	2.4211056
98	0x3f2dc01a	0.6787125
99	0x40c72fd2	6.2245874
100	0x40b14ee1	5.540879
101	0x00000000	0.0
102	0x00000004	6e-45
103	0x00000000	0.0
104	0x00000000	0.0
105	0x3f2c593b	0.67323655
106	0x00000000	0.0
107	0x00000000	0.0
108	0x00000000	0.0
109	0x00000004	6e-45
110	0x00000004	6e-45
111	0x402a425a	2.6602998
112	0x00000004	6e-45
113	0x00000000	0.0
114	0x410e6e77	8.901969
115	0x00000000	0.0
116	0x403be711	2.9359782
117	0x00000004	6e-45
118	0x00000004	6e-45
119	0x00000000	0.0
120	0x401554fe	2.3333125
121	0x4126ab8f	10.416884
122	0x00000000	0.0
123	0x00000000	0.0
124	0x00000004	6e-45
125	0x00000000	0.0
126	0x00000004	6e-45
127	0x00000000	0.0

layers.2.running_var f4 [128]
0	0x00000004	6e-45
1	0x3df43d35	0.11925737
2	0x00000004	6e-45
3	0x00000004	6e-45
4	0x00000004	6e-45
5	0x00000004	6e-45
6	0x4072cb25	3.793649
7	0x3fd8fe28	1.6952562
8	0x00000004	6e-45
9	0x00000004	6e-45
10	0x00000004	6e-45
11	0x00000004	6e-45
12	0x00000004	6e-45
13	0x00000004	6e-45
14	0x00000004	6e-45
15	0x00000004	6e-45
16	0x3fbde5dc	1.4835773
17	0x00000004	6e-45
18	0x00000004	6e-45
19	0x00000004	6e-45
20	0x3ec72d70	0.38901854
21	0x00000004	6e-45
22	0x00000004	6e-45
23	0x00000004	6e-45
24	0x00000004	6e-45
25	0x3f22399b	0.6336915
26	0x00000004	6e-45
27	0x00000004	6e-45
28	0x00000004	6e-45
29	0x00000004	6e-45
30	0x00000004	6e-45
31	0x4008b01c	2.1357489
32	0x00000004	6e-45
33	0x3ff0fd22	1.882725
34	0x00000004	6e-45
35	0x00000004	6e-45
36	0x3f62d1c4	0.88601327
37	0x00000004	6e-45
38	0x3f2f59bd	0.68496305
39	0x00000004	6e-45
40	0x3f8120d3	1.0088142
41	0x40045a75	2.068021
42	0x3eab7adf	0.3349218
43	0x00000004	6e-45
44	0x3f8e89c6	1.1135795
45	0x00000004	6e-45
46	0x3cb30beb	0.021856269
47	0x3f079680	0.5296402
48	0x00000004	6e-45
49	0x00000004	6e-45
50	0x00000004	6e-45
51	0x00000004	6e-45
52	0x00000004	6e-45
53	0x00000004	6e-45
54	0x3e509824	0.20370537
55	0x00000004	6e-45
56	0x40913ae7	4.53844
57	0x00000004	6e-45
58	0x00000004	6e-45
59	0x3ff3b8d5	1.9040781
60	0x00000004	6e-45
61	0x00000004	6e-45
62	0x00000004	6e-45
63	0x3f37322d	0.7156094
64	0x00000004	6e-45
65	0x00000004	6e-45
66	0x00000004	6e-45
67	0x00000004	6e-45
68	0x3f87a762	1.0597956
69	0x3f135356	0.57549036
70	0x3e203a9a	0.15647355
71	0x00000004	6e-45
72	0x00000004	6e-45
73	0x00000004	6e-45
74	0x411a5fa1	9.648347
75	0x00000004	6e-45
76	0x3cbe88ed	0.02325865
77	0x3fffab60	1.9974174
78	0x00000004	6e-45
79	0x407dce0c	3.965701
80	0x00000004	6e-45
81	0x00000004	6e-45
82	0x00000004	6e-45
83	0x3c498d00	0.012301683
84	0x00000004	6e-45
85	0x00000004	6e-45
86	0x3da46cf7	0.08028596
87	0x00000004	6e-45
88	0x00000004	6e-45
89	0x00000004	6e-45
90	0x410146ff	8.079833
91	0x4038eb91	2.8893778
92	0x00000004	6e-45
93	0x00000004	6e-45
94	0x00000004	6e-45
95	0x00000004	6e-45
96	0x00000004	6e-45
97	0x3f3aca23	0.72964686
98	0x3d972b69	0.07381327
99	0x3f92d87b	1.1472315
100	0x3f7b593b	0.9818303
101	0x00000004	6e-45
102	0x00000004	6e-45
103	0x00000004	6e-45
104	0x00000004	6e-45
105	0x3ca977c0	0.020686984
106	0x00000004	6e-45
107	0x00000004	6e-45
108	0x00000004	6e-45
109	0x00000004	6e-45
110	0x00000004	6e-45
111	0x40ee5b64	7.448656
112	0x00000004	6e-45
113	0x00000004	6e-45
114	0x3fe7e32a	1.81162
115	0x00000004	6e-45
116	0x3ef0e698	0.4705093
117	0x00000004	6e-45
118	0x00000004	6e-45
119	0x00000004	6e-45
120	0x3f85b6a2	1.044636
121	0x40173905	2.3628552
122	0x00000004	6e-45
123	0x00000004	6e-45
124	0x00000004	6e-45
125	0x00000004	6e-45
126	0x00000004	6e-45
127	0x00000004	6e-45

layers.4.weight f4 [128, 128]
0	0x3d234422	0.0398599
1	0xbd90e88b	-0.07075604
2	0x3d7fe093	0.06247003
3	0xbd932228	-0.07184249
4	0xbd8125fa	-0.063060716
5	0x3dbcff0a	0.09228332
6	0xbd9d3360	-0.07675815
7	0x3d4df98e	0.050286822
8	0xbd9f8d0e	-0.07790576
9	0x3b6d1425	0.0036175337
10	0xbd2e2dba	-0.042524077
11	0xbdd45793	-0.10368266
12	0x3cab92ef	0.020944087
13	0x3e304953	0.17215471
14	0xbe2ab698	-0.16671216
15	0xbd9bbae7	-0.07604008
16	0xbe10cbcf	-0.14140247
17	0x3afa8174	0.0019112066
18	0x3db54b95	0.08852307
19	0xbda79ade	-0.081838354
20	0x3cc577be	0.02410495
21	0x3dd84ccb	0.10561522
22	0xbc572c9b	-0.013133193
23	0x3dc11171	0.09427155
24	0x3c8c7bd3	0.017148888
25	0xbda38fe5	-0.0798643
26	0xbd93c28d	-0.07214842
27	0x3cb78890	0.022403985
28	0x3dc7fef8	0.09765428
29	0x3d97b11d	0.074068286
30	0xbdfaa894	-0.12239185
31	0xbcbb6863	-0.022876924
32	0xbe51c305	-0.2048455
33	0xbe6acf61	-0.22930671
34	0x3d0342a9	0.032045994
35	0xbe0c3d0e	-0.13695166
36	0xbde50076	-0.111817285
37	0x3e16b6a2	0.14718106
38	0x3d32c864	0.04364814
39	0x3e1ad4b8	0.15120208
40	0x3d9b3f8b	0.07580479
41	0x3e49c9c7	0.19705878
42	0x3e008684	0.12551314
43	0x3d537ad0	0.051630795
44	0x3bc4f60c	0.0060107764
45	0xbd1ff935	-0.03905602
46	0x3c6b3999	0.014356994
47	0xbd412ffd	-0.047164906
48	0xbdfa43c8	-0.122199595
49	0x3deb98b1	0.11503733
50	0x3e0ce06c	0.13757485
51	0xbd896ee1	-0.067106016
52	0x3d80c42e	0.06287418
53	0x3de27cf9	0.11058993
54	0x3caf49d0	0.021397501
55	0xbe6b9459	-0.23005809
56	0x3d1abd05	0.03777792
57	0xbe0866a9	-0.13320412
58	0x3c7bfbb5	0.015379836
59	0x3e60d18e	0.21954939
60	0x3e10ca5b	0.14139692
61	0xbe47b667	-0.19503175
62	0xbe0254ff	-0.12727736
63	0xbd9dfbfd	-0.077140786
64	0xbd403efe	-0.046935074
65	0xbde1cbb6	-0.11025183
66	0xbc8452c0	-0.01615274
67	0xbe0521b2	-0.13001135
68	0x3de5dbdf	0.11223578
69	0x3e52eee3	0.2059894
70	0x3e274aea	0.16337171
71	0xbd4919a9	-0.049096737
72	0x3e082091	0.13293673
73	0xbd1b0367	-0.03784504
74	0x3d78af7f	0.06071424
75	0x3d8571bc	0.06515834
76	0x3e317871	0.17331101
77	0x3defb068	0.11703569
78	0xb9d2ce59	-0.00040208062
79	0x3dfdca4e	0.12392102
80	0xbc888dd0	-0.016669184
81	0xbe29ed05	-0.16594322
82	0xbd061d85	-0.032742996
83	0x3c16643b	0.00917917
84	0xbcea6e4d	-0.028617049
85	0xbda70410	-0.08155072
86	0x3ceee415	0.029161492
87	0xbd29983a	-0.04140494
88	0xbd8da54a	-0.06916292
89	0xbbb09e76	-0.0053899838
90	0xbd598fc5	-0.053115625
91	0xbda2f0db	-0.07956096
92	0x3d278af7	0.04090401
93	0xbd1a0224	-0.037599698
94	0xbd8ad046	-0.06778006
95	0x3bd2c538	0.0064322017
96	0x3bfed50a	0.007776861
97	0x3da147e5	0.07875041
98	0xbd794d0d	-0.060864497
99	0x3e1e72af	0.15473436
100	0x3e33ceb7	0.17559324
101	0xbbde5a3a	-0.006785658
102	0xbdaf1cda	-0.08550425
103	0xbd155a48	-0.036463052
104	0x3c4ac721	0.012376578
105	0xbdc6f963	-0.097155355
106	0x3d819913	0.06328025
107	0xbb964f48	-0.004587088
108	0xbd85ced8	-0.06533593
109	0x3be982cd	0.0071261884
110	0x3dc12b61	0.09432102
111	0x3db2810f	0.08716022
112	0xbc9cde2c	-0.019148909
113	0x3e38e65b	0.18056624
114	0x3d86b85f	0.06578135
115	0x3e81481b	0.25250325
116	0x3e328d72	0.1743677
117	0x3dd1d9e6	0.10246639
118	0xbb9aeffa	-0.0047283145
119	0x3e56806d	0.20947428
120	0xbe264e0d	-0.16240712
121	0x3d46fd2c	0.048581287
122	0xbe7ecb24	-0.2488218
123	0x3dac0247	0.08398872
124	0x3d564d73	0.052319955
125	0x3e33c1f1	0.17554452
126	0x3de60603	0.112316154
127	0x3dc30d88	0.09524065
128	0xbe094214	-0.13404113
129	0x3df1a22c	0.1179851
130	0x3d4938fd	0.049126614
131	0xbd0610d2	-0.032730885
132	0xbd0db273	-0.03459401
133	0xbd7bc84e	-0.061470322
134	0xbdf4a11a	-0.1194479
135	0xbdee539d	-0.11637042
136	0x3ddb44c8	0.10706478
137	0xbda29ec3	-0.07940438
138	0x3e305f80	0.1722393
139	0xbe2010c3	-0.15631394
140	0xbe04d6b1	-0.12972523
141	0xbd91a7cc	-0.07112083
142	0xbe3f010d	-0.18652745
143	0x3e15b815	0.14621003
144	0xbdf14c27	-0.11782103
145	0xbdb6da8a	-0.08928402
146	0xbe4ef9fc	-0.20212549
147	0xbd92d0e4	-0.07168749
148	0x3db16e2a	0.0866359
149	0x3e1b8d5a	0.1519064
150	0xbe532e4f	-0.20623134
151	0x3cbe99b2	0.023266647
152	0xbea020bf	-0.31274983
153	0x3e4e526e	0.20148632
154	0xbe81120d	-0.25209084
155	0x3e91e470	0.28494596
156	0xbe1ec3cd	-0.1550438
157	0xbe162291	-0.14661624
158	0x3db4762e	0.088116035
159	0x3da42d61	0.08016468
160	0xbe1a6d96	-0.15080866
161	0xbd68a712	-0.056799956
162	0x3e0680c8	0.13135064
163	0xbea21860	-0.31659222
164	0xbd5885bf	-0.052861925
165	0xbe8137e3	-0.2523795
166	0x3ce43967	0.027859403
167	0x3e5bbe30	0.2145927
168	0xbdb5c2e4	-0.08875063
169	0x3b8c5ed6	0.0042837663
170	0x3da4d10a	0.080476835
171	0x3bd54534	0.006508494
172	0x3d6ea8fa	0.058266617
173	0xbdfdf72d	-0.12400661
174	0xbbf8cfb3	-0.007593119
175	0xbd29d4ea	-0.041462816
176	0xbe455cac	-0.19273633
177	0x3dd20481	0.10254765
178	0x3a8e4ef6	0.0010857272
179	0xbd3ec587	-0.046575096
180	0x3e43d1f5	0.19123061
181	0x3e282aca	0.16422573
182	0x3b323ad7	0.0027195716
183	0xbe885071	-0.26623872
184	0x3db17085	0.086640395
185	0xbe218923	-0.1577497
186	0xbdba5a4d	-0.09099255
187	0x3da5d4ac	0.080972046
188	0xbe3d4f9c	-0.184874
189	0x3e6bf1aa	0.23041406
190	0xbe55b785	-0.20870788
191	0xbdf82b2b	-0.12117609
192	0x3daa7cb3	0.08324566
193	0xbe1ea0a5	-0.15490969
194	0xbd06c4ea	-0.032902636
195	0x3d086c0d	0.03330617
196	0x3e29f65f	0.1659789
197	0x3e4b1fbd	0.19836326
198	0x3a32a669	0.0006814958
199	0xbdb32a13	-0.087482594
200	0x3ce9041f	0.028444348
201	0xbd4abc28	-0.049495846
202	0xbd9f3968	-0.07774621
203	0x3c9ffa16	0.01952843
204	0x3d9c5e02	0.07635118
205	0xbe2d08f7	-0.16897951
206	0x3dfcd6e8	0.123456776
207	0xbe0e4db7	-0.13896833
208	0x3bb9a8ca	0.005665873
209	0xbbd587d4	-0.006516436
210	0x3db9eb41	0.09078074
211	0x3cf3c04b	0.029754778
212	0x3cb601d0	0.022217661
213	0xbd84d172	-0.06485261
214	0x3de17276	0.1100816
215	0x3e690148	0.22754395
216	0xbe2e1dfb	-0.17003624
217	0x3e24cebd	0.1609449
218	0x3cc805a3	0.02441675
219	0xbda23a09	-0.079212256
220	0x3e018897	0.12649761
221	0xbe4f4be9	-0.20243801
222	0x3e627b9b	0.22117464
223	0x3e0b0f7a	0.13580123
224	0xbe19bad1	-0.15012671
225	0xbcc6f50d	-0.024286771
226	0x3dcb00a3	0.09912231
227	0x3d106213	0.03524978
228	0x3e12372f	0.14278863
229	0xbe65d76d	-0.2244546
230	0xbd07431f	-0.033022996
231	0xbcd49500	-0.025949955
232	0xbce58d8d	-0.028021598
233	0x3de2a4f2	0.11066617
234	0x3e650eb2	0.22368887
235	0xbc94ed96	-0.018179696
236	0xbd1d0750	-0.038337052
237	0xbd1e81ab	-0.03869788
238	0x3e5ace72	0.21367815
239	0x3dba898e	0.09108268
240	0x3d87603f	0.06610154
241	0xbe130c6f	-0.14360212
242	0xbb6ed734	-0.003644419
243	0x3ea8de1d	0.3298196
244	0xbdde9668	-0.108685315
245	0x3e06e405	0.1317292
246	0xbdfccf9d	-0.123442866
247	0x3e4546f7	0.19265352
248	0xbc546b14	-0.012964983
249	0xbd40cbb2	-0.04706926
250	0x3e9834a1	0.29727653
251	0xbe5623f7	-0.20912157
252	0xbe625da7	-0.22106038
253	0x3e4bb588	0.19893467
254	0xbdd912f5	-0.10599319
255	0x3e25abea	0.16178861

layers.4.bias f4 [128]
0	0x3d04c92a	0.032418407
1	0x3e54bdd6	0.20775542
2	0xbd8413c9	-0.06449086
3	0x3e4b00e6	0.19824561
4	0x3e0b9656	0.13631567
5	0x3e2fe62e	0.1717765
6	0x3e089978	0.13339794
7	0xbd0483fa	-0.032352425
8	0x3ca6f9ac	0.020382725
9	0xbc9cbe49	-0.019133704
10	0x3dcef120	0.10104585
11	0xbd0644c9	-0.032780442
12	0x3e6c0d47	0.2305194
13	0x3c5ec44b	0.013596605
14	0x3ea35ade	0.31905264
15	0x3d3a6982	0.045510776
16	0x3bbd0ebd	0.005769579
17	0x3e27ff6a	0.16406026
18	0x3e51a535	0.20473178
19	0xbcc5dac5	-0.024152169
20	0xbd69ee7f	-0.057112213
21	0x3bf7c0a6	0.0075608073
22	0x3e82b6dd	0.2553014
23	0x3cb5975b	0.022166898
24	0x3e374187	0.1789609
25	0xbdc74d03	-0.09731486
26	0x3d32ca6a	0.04365007
27	0x3e117d70	0.14208007
28	0x3e107348	0.14106476
29	0x3e0f034a	0.13966098
30	0x3e2124c6	0.15736684
31	0x3e35e3fb	0.17762749
32	0x3d433636	0.04765912
33	0x3e0335f7	0.12813555
34	0x3df51844	0.11967519
35	0x3e03deea	0.12878004
36	0x3e22c65c	0.1589598
37	0x3e1d245b	0.153459
38	0x3e1b15fd	0.15145107
39	0xbd87ffec	-0.0664061
40	0x3c1d705e	0.00960931
41	0x3e3e6063	0.18591456
42	0x3e307681	0.17232706
43	0xbcead2e6	-0.028665017
44	0x3d5a83a8	0.053348213
45	0x3da2f25b	0.07956382
46	0x3e6c284f	0.23062252
47	0x3da748dc	0.08168194
48	0x3d8ec428	0.069710076
49	0x3e8ba143	0.2727147
50	0x3e663bb5	0.22483714
51	0xbd3334cc	-0.043751523
52	0x3d53e61d	0.051733125
53	0x3d6afe27	0.057371285
54	0x3e6e7b07	0.23289119
55	0x3d3cc423	0.046085488
56	0x3e6393b2	0.2222431
57	0x3e238c00	0.15971375
58	0x3d6ed0bd	0.058304537
59	0x3d12bd07	0.0358248
60	0xbcb086d7	-0.021548672
61	0x3e787e88	0.24267018
62	0x3e234618	0.15944707
63	0x3dc6e4ff	0.09711646
64	0x3c8ada8e	0.016949918
65	0x3e8decef	0.27719828
66	0x3ddc108a	0.10745342
67	0x3d9566e7	0.07295018
68	0x3bfba408	0.007679466
69	0x3d28a2d9	0.04117093
70	0x3e1c2ab2	0.15250662
71	0xbd2035f7	-0.039113965
72	0x3d31b00e	0.04338079
73	0x3c896862	0.016773406
74	0x3e0fd7b0	0.14047122
75	0x3d45adbb	0.048261385
76	0x3e22dd89	0.15904821
77	0x3caa6ac8	0.02080287
78	0x3dff1188	0.12454516
79	0x3dc890b2	0.097932234
80	0x3d9bf78d	0.07615576
81	0x3dcfbd30	0.101435065
82	0x3de1182e	0.1099094
83	0x3e33bd69	0.17552723
84	0x3ddd4e12	0.10805906
85	0x3e235388	0.15949833
86	0xbe15364a	-0.14571491
87	0x3e8cabd9	0.2747486
88	0x3dd4e549	0.10395295
89	0x3e85145a	0.2599209
90	0x3cf06300	0.029344082
91	0x3da0e24f	0.07855665
92	0x3d793547	0.060841825
93	0x3c3567b4	0.011072088
94	0x3e1fc5a9	0.15602745
95	0x3e0a3026	0.1349493
96	0x3e076ea8	0.13225806
97	0x3dcc3998	0.09971923
98	0x3cb38668	0.021914676
99	0x3c2904cb	0.010316084
100	0x3eb033a8	0.3441441
101	0x3dd25317	0.102697544
102	0x3e242a3b	0.16031735
103	0x3e43e58f	0.19130538
104	0x3cd415cc	0.0258893
105	0x3e530988	0.20609105
106	0x3da5106e	0.08059774
107	0x3e5abf48	0.2136203
108	0x3e411e08	0.18859112
109	0x3e8b7eb1	0.27245095
110	0xbd0aa5b2	-0.033849426
111	0x3daee5d8	0.08539933
112	0xbd335987	-0.04378655
113	0x3cab6579	0.02092241
114	0x3c912e23	0.017722195
115	0x3d948a0c	0.07252893
116	0x3d98b9f4	0.07457343
117	0x3d8c5106	0.068513915
118	0x3e8a766f	0.27043483
119	0xbd7cf997	-0.061761465
120	0x3d50f13f	0.05101132
121	0x3da0b246	0.07846503
122	0x3bd26b28	0.0064214654
123	0xbd24fcbc	-0.04028009
124	0x3e417bab	0.18894832
125	0x3d7c11c6	0.061540388
126	0x3c31bd94	0.010848422
127	0x3c91027a	0.017701376

layers.6.weight f4 [128]
0	0x3f83255e	1.0245779
1	0x3f76bbc5	0.96380264
2	0x3f4a1d31	0.7895079
3	0x3f72f8c6	0.9491085
4	0x3f7ecec4	0.9953425
5	0x3f82962c	1.0202079
6	0x3f6be4cc	0.9214599
7	0x3f6b5482	0.91925824
8	0x3f395c0c	0.7240608
9	0x3f5158ad	0.81775934
10	0x3f7e14c4	0.99250436
11	0x3f6f6d4e	0.9352616
12	0x3f893f4f	1.0722445
13	0x3f66652c	0.89998126
14	0x3f84e0f4	1.038115
15	0x3f86da08	1.0535288
16	0x3f541701	0.828476
17	0x3f7cc3ff	0.98736566
18	0x3f620a26	0.88296735
19	0x3f6e743b	0.93146104
20	0x3f51e189	0.81984764
21	0x3f7640c9	0.96192604
22	0x3f76be68	0.96384287
23	0x3f7b4791	0.98156077
24	0x3f8e8b85	1.1136328
25	0x3f657f0e	0.89646995
26	0x3f863e25	1.0487715
27	0x3f7ec019	0.9951187
28	0x3f600e81	0.8752213
29	0x3f9711f8	1.1802359
30	0x3f6a557c	0.9153669
31	0x3f637a85	0.88858825
32	0x3f6cfba7	0.9257149
33	0x3f91a2e8	1.137784
34	0x3f64c9a3	0.89370173
35	0x3f859203	1.0435184
36	0x3f8dc5c6	1.1075981
37	0x3f66eb4e	0.90202796
38	0x3f83402b	1.0253958
39	0x3f8d3bf0	1.1033916
40	0x3f55b589	0.83480126
41	0x3f73d76f	0.952506
42	0x3f8b5881	1.0886384
43	0x3f5554e4	0.8333266
44	0x3f72a26f	0.94779104
45	0x3f716459	0.94293743
46	0x3f841af0	1.0320721
47	0x3f58bc76	0.8466257
48	0x3f4f7625	0.8103965
49	0x3f89eb12	1.0774863
50	0x3f5b4786	0.8565601
51	0x3f43650c	0.7632606
52	0x3f85f0d7	1.0464123
53	0x3f6fbc82	0.93647015
54	0x3f8aa95f	1.0832938
55	0x3f869f53	1.0517372
56	0x3f90ff21	1.1327859
57	0x3f811d92	1.0087149
58	0x3f74476a	0.9542147
59	0x3f56f091	0.83960825
60	0x3f81a9e2	1.0129969
61	0x3f7b684e	0.9820603
62	0x3f8246f3	1.0177902
63	0x3f83ce64	1.029736
64	0x3f856b71	1.0423414
65	0x3f738475	0.9512399
66	0x3f6c39f3	0.92275923
67	0x3f8a7aca	1.0818722
68	0x3f767fb7	0.9628863
69	0x3f5cd63b	0.8626439
70	0x3f8f58da	1.119899
71	0x3f684642	0.90732205
72	0x3f5a6ff0	0.85327053
73	0x3f665bb0	0.89983654
74	0x3f638799	0.8887878
75	0x3f86ebc6	1.0540702
76	0x3f819cbc	1.0125957
77	0x3f5626c3	0.83652896
78	0x3f54648b	0.82965916
79	0x3f85c0f5	1.0449511
80	0x3f80b1ef	1.0054301
81	0x3f7dcc10	0.991395
82	0x3f86b825	1.0524946
83	0x3f69da7b	0.91349
84	0x3f80118d	1.0005356
85	0x3f819cba	1.0125954
86	0x3f6da7d3	0.92834204
87	0x3f85b619	1.0446197
88	0x3f77e705	0.9683688
89	0x3f8a0a9f	1.0784491
90	0x3f64914f	0.89284223
91	0x3f780dd6	0.9689611
92	0x3f915599	1.1354247
93	0x3f7ffcc3	0.9999506
94	0x3f567582	0.8377305
95	0x3f6e21c5	0.9302028
96	0x3f9d7306	1.2300727
97	0x3f81d638	1.0143499
98	0x3f67fd59	0.9062095
99	0x3f66cc6f	0.9015569
100	0x3f8be505	1.0929266
101	0x3f6c82de	0.9238719
102	0x3f62a8fa	0.8853909
103	0x3f6abada	0.9169136
104	0x3f79d187	0.9758534
105	0x3f64c871	0.8936835
106	0x3f5473bf	0.82989115
107	0x3f665233	0.89969176
108	0x3f839eb4	1.0282807
109	0x3f77ccc6	0.96796834
110	0x3f6da14b	0.9282424
111	0x3f640ebd	0.8908499
112	0x3f61ce84	0.8820574
113	0x3f647070	0.89234066
114	0x3f820143	1.0156635
115	0x3f869ca5	1.0516554
116	0x3f58beff	0.84666437
117	0x3f7e1f4b	0.992665
118	0x3f89848e	1.0743577
119	0x3f6f4aa9	0.934733
120	0x3f6373d3	0.8884861
121	0x3f83d611	1.0299703
122	0x3f51a4c8	0.8189206
123	0x3f5be576	0.85897005
124	0x3f779d30	0.96724224
125	0x3f623cbc	0.88373923
126	0x3f611641	0.8792458
127	0x3f73d484	0.9524615

layers.6.bias f4 [128]
0	0x3e8252c1	0.2545376
1	0xbeba9308	-0.364403
2	0x3e5a9f0e	0.21349737
3	0xbea732b1	-0.32655862
4	0x3e47c381	0.19508173
5	0xbdb0fe3b	-0.086422406
6	0xbd5a64ff	-0.053318974
7	0xbd707f0a	-0.058714904
8	0xbcce1565	-0.025156686
9	0xbdd10f37	-0.1020798
10	0xbd831bb7	-0.064017706
11	0xbe28eb60	-0.16496038
12	0x3c9dd1c9	0.019265072
13	0xbe056441	-0.13026525
14	0xbd042d83	-0.032269966
15	0x3ed55398	0.4166534
16	0xbe4f084b	-0.20218007
17	0x3e6428a8	0.22281134
18	0xbdde9a79	-0.10869307
19	0x3d97c653	0.07410874
20	0xbed73202	-0.4203034
21	0x3e52c042	0.20581153
22	0x3c57deef	0.01317571
23	0x3e8a061f	0.26957795
24	0x3db500ba	0.08838029
25	0xbebad059	-0.36487082
26	0x3e293739	0.16524972
27	0x3e3a88e4	0.18216282
28	0x3d5f03b4	0.05444689
29	0x3e449a0c	0.19199389
30	0xbee35feb	-0.44409117
31	0x3d81dadd	0.06340573
32	0x3e74248d	0.23842068
33	0x3c41a805	0.011819844
34	0xbe95bd0c	-0.29245794
35	0xbeaac313	-0.33351955
36	0x3c11878b	0.008882414
37	0xbefac54b	-0.48978648
38	0x3ea11871	0.3146396
39	0x3ec3cf5f	0.3824415
40	0x3e53a95c	0.20670074
41	0xbed66a35	-0.41877905
42	0xbdba4638	-0.090954244
43	0x3e0c7368	0.13715899
44	0xbdad25f3	-0.08454504
45	0x3e701947	0.23447143
46	0x3e4e996a	0.2017571
47	0xbe41c058	-0.1892103
48	0xbd9e1bdd	-0.07720158
49	0xbe89fee7	-0.26952288
50	0xbcd99b20	-0.026563227
51	0xbd791c08	-0.06081775
52	0x3e3f1626	0.18660793
53	0x3b9a3197	0.0047056186
54	0xbe5c6ce1	-0.21525909
55	0xbec79d26	-0.38987082
56	0xbd7df62f	-0.062002357
57	0xbddd84d9	-0.10816354
58	0x3e0ac5e7	0.13552056
59	0x3ddee11a	0.108827785
60	0x3ea51e21	0.3224955
61	0x3ec3dd1a	0.38254625
62	0x3e2f28b4	0.17105371
63	0xbcdca17b	-0.026932469
64	0x3daf2b99	0.085532375
65	0xbe1d86b5	-0.15383418
66	0xbebb6539	-0.36600664
67	0xbe1768db	-0.14786093
68	0x3ea8b2b9	0.32948855
69	0xbe9ceeae	-0.30650848
70	0xbcf6fc0a	-0.030149478
71	0x3e1feb7d	0.15617175
72	0xbc07d2fc	-0.008290049
73	0x3e955d7c	0.29172885
74	0xbd6eb45a	-0.058277465
75	0xbddf9356	-0.10916774
76	0xbe7b38ba	-0.24533358
77	0xbe8800ca	-0.26563102
78	0xbeeda8ef	-0.4641795
79	0xbd965fe4	-0.073425084
80	0x3ebf8770	0.37408018
81	0x3d2a30a7	0.041550305
82	0x3d531cdb	0.05154119
83	0x3ea31613	0.3185278
84	0x3e85e89e	0.26154035
85	0x3dd77389	0.105200835
86	0x3e230e45	0.15923412
87	0x3cf61160	0.030037582
88	0xbf064548	-0.52449465
89	0x3cd16d53	0.025564825
90	0xbe5bad30	-0.21452785
91	0x3d4a4eea	0.049391665
92	0x3ea71a7f	0.32637402
93	0x3df6d6e4	0.12052706
94	0xbed76bc7	-0.42074415
95	0x3ebf73d4	0.37393057
96	0x3c0bf923	0.008543286
97	0x3de45095	0.11148182
98	0x3e6c3022	0.23065236
99	0x3e9a2489	0.30106
100	0xbda7c7c6	-0.08192401
101	0x3ea20e95	0.3165175
102	0xbe2a3d0b	-0.16624849
103	0xbee33e0d	-0.44383278
104	0x3f0f0ddf	0.5588054
105	0x3d4d9b0e	0.0501967
106	0xbe712a04	-0.23551184
107	0xbe12db0a	-0.1434137
108	0x3dc85027	0.09780913
109	0xbe1aaf55	-0.15105946
110	0xbe5e45e9	-0.21706356
111	0xbe37092a	-0.1787459
112	0x3dcf37ac	0.101180404
113	0x3df4fd64	0.11962393
114	0x3dff1310	0.12454808
115	0x3ea8d102	0.3297196
116	0xbd31d923	-0.04341997
117	0x3cbe1611	0.023203881
118	0xbe085240	-0.13312626
119	0x3d9554e3	0.072915815
120	0xbef59d32	-0.47971493
121	0xbd0a33d5	-0.033740837
122	0xbccd9343	-0.025094634
123	0xbdc80c27	-0.09767943
124	0x3d8c227a	0.068425134
125	0xbc9df3a2	-0.019281212
126	0x3ca55d8d	0.02018621
127	0x3e8dca19	0.2769325

layers.6.running_mean f4 [128]
0	0x3f4c0850	0.79700184
1	0x400000f9	2.0000594
2	0x3e2a4b7a	0.16630355
3	0x3fe8d102	1.8188784
4	0x3f907f12	1.1288779
5	0x3f91568d	1.1354538
6	0x3fa87138	1.3159552
7	0x3eea6119	0.45777205
8	0x3f091a03	0.53555316
9	0x3f17624e	0.59134376
10	0x3f88386e	1.0642221
11	0x3f02f0d5	0.5114873
12	0x400e54d8	2.2239285
13	0x3f7a92c7	0.97880214
14	0x400dc89a	2.2153687
15	0x3fa1a1fa	1.2627556
16	0x3ef2581e	0.47332853
17	0x3fc18c7f	1.5121001
18	0x3fde4672	1.7365248
19	0x3f2ec6f0	0.68272305
20	0x3e35b0f5	0.17743285
21	0x3f54c6a6	0.83115613
22	0x400e889e	2.2270885
23	0x3f2ed928	0.68300104
24	0x3fdfa854	1.7473245
25	0x3e799ed8	0.24377
26	0x3f6cb388	0.9246144
27	0x3fc38a0a	1.5276501
28	0x3fb47dc2	1.4100878
29	0x3ff175bd	1.8864056
30	0x3fa9dbbc	1.3270183
31	0x4003e94f	2.061115
32	0x3f70f9a6	0.94130933
33	0x3fa30645	1.2736288
34	0x3f9e566d	1.2370125
35	0x3fabbcdb	1.3417009
36	0x3ff11ae8	1.8836336
37	0x3fd3c599	1.6544677
38	0x3fc5078b	1.5392927
39	0x3eed9ec2	0.46410185
40	0x3f198f49	0.5998426
41	0x3febc677	1.8419942
42	0x3fd52fbc	1.6655192
43	0x3eaffb85	0.34371582
44	0x3f2f81c7	0.685574
45	0x3fa4c8b6	1.2873752
46	0x4012114c	2.2823057
47	0x3f7dc660	0.9913082
48	0x3f781f2a	0.9692255
49	0x4006d078	2.106474
50	0x3fed8b10	1.8558064
51	0x3eb9fe7c	0.3632697
52	0x3f7cc312	0.98735154
53	0x3f6c71db	0.9236123
54	0x400cf883	2.202668
55	0x3fbaedcf	1.4603823
56	0x3fd3ee1e	1.6557043
57	0x3fe514bd	1.7896954
58	0x3f5f2bf0	0.8717642
59	0x3f66a152	0.90089905
60	0x3f1c62dc	0.6108835
61	0x3ffe25d6	1.9855297
62	0x3fd61498	1.6725035
63	0x3faf1894	1.3679376
64	0x3f30c872	0.69055855
65	0x4016e793	2.3578842
66	0x3fa2037c	1.2657313
67	0x3fac67a9	1.3469135
68	0x3ec83faa	0.39111072
69	0x3f86b234	1.0523133
70	0x3f99779b	1.1989626
71	0x3f1010c1	0.56275564
72	0x3f37a036	0.7172884
73	0x3f36971c	0.71324325
74	0x3fb23ea7	1.392537
75	0x3f39f372	0.72637093
76	0x3fbcec94	1.4759698
77	0x3f555460	0.8333187
78	0x3fc511af	1.5396022
79	0x3f6ed3fc	0.9329221
80	0x3fa07e81	1.2538606
81	0x3fb29075	1.3950335
82	0x3fc79f06	1.5595405
83	0x3fde60fa	1.7373345
84	0x3f9103e6	1.1329315
85	0x3fc0fe8a	1.5077679
86	0x3cb788ac	0.022404037
87	0x4021e6c4	2.5297098
88	0x3fb6428a	1.4239056
89	0x3feaadba	1.8334267
90	0x3f0c3c94	0.54779935
91	0x3f91a818	1.1379423
92	0x3f4d8b35	0.8029054
93	0x3f12513c	0.57155204
94	0x3fe44a81	1.7835237
95	0x3f93565f	1.1510733
96	0x3fd5819d	1.668018
97	0x3f8c88aa	1.0979207
98	0x3f64bab8	0.8934741
99	0x3f7ff778	0.9998698
100	0x401559e1	2.3336108
101	0x3f8ab5a6	1.0836685
102	0x3feef7d7	1.8669385
103	0x3fd8a59a	1.6925538
104	0x3edc544b	0.4303306
105	0x4001ed5d	2.0301125
106	0x3f91b390	1.1382923
107	0x3fc3f880	1.5310211
108	0x3ffd310b	1.9780592
109	0x3ff5664e	1.9171846
110	0x3f0bb956	0.54579675
111	0x3fb93380	1.4468842
112	0x3ee60d24	0.449319
113	0x3f33cef8	0.70237684
114	0x3f3bfb9e	0.7343081
115	0x3f416da0	0.755579
116	0x3f67862e	0.90439117
117	0x3f3a035f	0.72661394
118	0x402427ab	2.5649211
119	0x3e9c9e13	0.3058935
120	0x3f6a085e	0.9141902
121	0x3f53e457	0.82770294
122	0x3f0fa017	0.5610365
123	0x3f032fd9	0.51244885
124	0x3fe01715	1.7507044
125	0x3f505907	0.81385845
126	0x3efc578b	0.4928554
127	0x3f1d8e4e	0.61545265

layers.6.running_var f4 [128]
0	0x3f87c4ed	1.0606972
1	0x3f841b27	1.0320786
2	0x3e273697	0.16329418
3	0x3ff76d83	1.9330295
4	0x3fb6b984	1.4275365
5	0x3f92b78d	1.1462265
6	0x3faa5dc5	1.3309866
7	0x3f1ccf9c	0.61254287
8	0x3f1ac83b	0.6046178
9	0x3f5329b2	0.82485497
10	0x3fa16017	1.2607449
11	0x3f4b7ad5	0.794843
12	0x3ff0f926	1.8826034
13	0x3f94f472	1.1637099
14	0x3fbaf746	1.4606712
15	0x3faa224a	1.3291714
16	0x3f2bf972	0.671775
17	0x3fa0102b	1.2504934
18	0x3f9f768a	1.245805
19	0x3f8ab0d7	1.0835217
20	0x3e4c39b9	0.19943894
21	0x3fc7fceb	1.562406
22	0x3fc25bd2	1.5184271
23	0x3f828de2	1.0199549
24	0x3fb99530	1.4498653
25	0x3e9220df	0.28540704
26	0x3f985368	1.1900454
27	0x3f932f1a	1.1498749
28	0x3fd45fc0	1.659172
29	0x3fdcbdee	1.7245462
30	0x3f9628ba	1.1731179
31	0x3fa49ee0	1.2860985
32	0x3fafdb07	1.3738717
33	0x3f8f796f	1.1208934
34	0x3f9d12a3	1.2271312
35	0x3fc4968a	1.5358441
36	0x3fa780f8	1.3086233
37	0x3fc2d3ff	1.5220946
38	0x3fb9b48e	1.4508226
39	0x3f329e28	0.6977258
40	0x3f5beae6	0.859053
41	0x3f8dd7cf	1.1081485
42	0x3f9dc87d	1.2326809
43	0x3ee5f07e	0.44910043
44	0x3f785015	0.96997195
45	0x3fbe1b6a	1.4852116
46	0x3fdecd91	1.7406484
47	0x3f84cf5c	1.0375781
48	0x3f8400c0	1.0312729
49	0x3fa62bd3	1.2982124
50	0x3fc5893f	1.5432509
51	0x3f03c3f1	0.5147086
52	0x3fafdb4e	1.3738801
53	0x3f758ce3	0.959181
54	0x3f6bdef9	0.92137104
55	0x3fb39d39	1.4032356
56	0x3fbaaeed	1.4584633
57	0x3ff2677d	1.8937832
58	0x3f688dd0	0.9084139
59	0x3f99f2f0	1.2027264
60	0x3f32bfee	0.6982411
61	0x3fbce58b	1.4757551
62	0x3fc8e302	1.5694277
63	0x3fa6c3d7	1.3028516
64	0x3f7a5847	0.9779095
65	0x3ff569f1	1.9172956
66	0x3fd2b986	1.6462867
67	0x3f9c6347	1.2217797
68	0x3ee660cb	0.44995722
69	0x3f884a2f	1.0647639
70	0x3f8a52cc	1.0806518
71	0x3f52b168	0.8230195
72	0x3f2fb277	0.6863169
73	0x3f4207be	0.75793064
74	0x3f981fc3	1.1884693
75	0x3f7101bc	0.9414327
76	0x3fc2b945	1.521279
77	0x3f5356d0	0.8255434
78	0x3f9735fe	1.1813352
79	0x3f831ac2	1.0242541
80	0x3f96e6d1	1.178919
81	0x3fb6b401	1.4273683
82	0x3fa91e54	1.321238
83	0x3fbe6f0c	1.4877639
84	0x3fa43c06	1.2830818
85	0x3fc40044	1.5312581
86	0x3c16f939	0.009214693
87	0x3ffce257	1.9756573
88	0x3fbb50b1	1.4634
89	0x3fcb49e2	1.5881922
90	0x3f0a5bc3	0.5404627
91	0x3fbdc72e	1.482641
92	0x3f6f88bb	0.9356801
93	0x3f51fab9	0.820232
94	0x3fcfdefd	1.6239926
95	0x3fc1e4cc	1.5147948
96	0x3f7f3b0a	0.9969946
97	0x3f93c1f2	1.1543562
98	0x3f7841a0	0.96975136
99	0x3f850aa7	1.0393876
100	0x3ff6896d	1.9260689
101	0x3fa1b224	1.2632489
102	0x3fb27b9d	1.3943974
103	0x3fb23a72	1.3924086
104	0x3f09d86a	0.53845847
105	0x40102b67	2.252649
106	0x3f8d6621	1.1046792
107	0x3f5e1855	0.8675588
108	0x3f948151	1.1601964
109	0x3f897526	1.0738876
110	0x3f1443db	0.5791604
111	0x3fb01fc6	1.3759696
112	0x3f1f8157	0.6230673
113	0x3f45bef9	0.77244526
114	0x3f6f32a1	0.9343663
115	0x3f347297	0.7048735
116	0x3f817ab7	1.0115575
117	0x3f46b114	0.7761395
118	0x40001bd7	2.0016992
119	0x3ec61965	0.3869125
120	0x3faa77f9	1.3317863
121	0x3f8364fb	1.0265192
122	0x3f26945e	0.6507014
123	0x3f47fbaa	0.78118384
124	0x3fcdc549	1.6075832
125	0x3fab0f1f	1.336399
126	0x3f144d6c	0.57930636
127	0x3f303c53	0.6884205
